09-serverless/hair_classifier_v1.onnx (onnx, 10337 bytes, 3 tensors)

conv1.bias f4 [32]
-0.10402735 0.16268905 0.1353164 0.045038663 0.0037277027 -0.16050747 -0.023108646 0.17222871
0.039182868 0.0053063557 -0.048198715 -0.06212855 0.09718933 0.0031079762 0.1067041 -0.042049933
0.08094596 0.06543583 0.022449944 0.122583434 0.12001923 0.17018509 0.13951614 -0.06267875
-0.1698624 0.05012677 -0.008192795 -0.049581178 -0.040203232 -0.00881315 0.12272965 0.075927645
00000000: 4b0c d5bd f597 263e 6290 0a3e 767a 383d
00000010: 794c 743b 125c 24be 584e bdbc b95c 303e
00000020: 377e 203d f0e0 ad3b 046c 45bd 827a 7ebd
00000030: 330b c73d 30af 4b3b ae87 da3d 8d3c 2cbd
00000040: ffc6 a53d 3803 863d f2e8 b73c 060d fb3d
00000050: a4cc f53d 0045 2e3e 52dd 0e3e b75d 80bd
00000060: 69f0 2dbe ba51 4d3d 133b 06bc a215 4bbd
00000070: 25ac 24bd 0865 10bc af59 fb3d f47f 9b3d

fc1.bias f4 [64]
0.0005000154 -0.0007864771 0.00014756176 -0.0011924984 0.0011092984 0.00023198586 -4.0570263e-05 -0.0024297996
0.00038716826 -0.00020347473 -0.0008118826 -0.0005285221 -7.4214644e-05 -0.0018456484 -0.0011119741 -0.001766398
-0.00094158977 -0.0009608748 0.0012751715 -0.00029102742 -0.002072529 -0.0006381888 0.0015331504 -0.0015070168
0.0012998532 5.8724396e-05 0.0005157255 0.0015103945 0.00068579975 -0.0012769687 -0.0017384592 -0.0017748718
-0.0023229981 -0.0016201488 -0.0012979442 -0.0018147331 0.00036513517 0.001387842 0.00048698267 0.0012483542
0.0012089878 0.001934725 -0.00014104455 -0.0003999608 -0.000411926 -0.00060190813 -0.00067182863 -0.00046722655
0.00021407838 -0.0022386992 -0.0014095464 0.0009115642 0.0010917307 0.0007897114 0.0016625908 -0.0025266684
0.0013533708 0.005792609 -0.00028607203 -0.001609044 0.0008494107 -0.000108111744 0.0009804755 -0.0018525368
00000000: 7713 033a 962b 4eba cfba 1a39 9b4d 9cba
00000010: e165 913a 3b41 7339 fd29 2ab8 463d 1fbb
00000020: d8fc ca39 d55b 55b9 85d4 54ba 858c 0aba
00000030: afa3 9bb8 afe9 f1ba a9bf 91ba 7b86 e7ba
00000040: 05d5 76ba 37e3 7bba a823 a73a 0a95 98b9
00000050: 44d3 07bb 204c 27ba fef3 c83a 1887 c5ba
00000060: d65f aa3a d74e 7638 c131 073a 6ef8 c53a
00000070: 3ec7 333a f65f a7ba 03dd e3ba d1a2 e8ba
00000080: 713d 18bb 2c5b d4ba c81f aaba 57dc edba
00000090: 9d6f bf39 40e8 b53a b551 ff39 d19f a33a
000000a0: e676 9e3a 9996 fd3a 5ce5 13b9 d4b1 d1b9
000000b0: c6f7 d7b9 5fc9 1dba a81d 30ba 16f6 f4b9
000000c0: 3a7a 6039 24b7 12bb 87c0 b8ba 0af6 6e3a
000000d0: 6718 8f3a a304 4f3a 4aeb d93a 7696 25bb
000000e0: 9763 b13a edcf bd3b f0fb 95b9 8fe6 d2ba
000000f0: fdaa 5e3a 0dba e2b8 4c83 803a d2d0 f2ba

fc2.weight f4 [1, 64]
-0.00019756095 0.09418929 -0.026081536 -0.072276674 -0.054083627 0.070461586 0.019500943 -0.02053662
0.091225095 0.035884265 -0.0910856 -0.056772728 -0.042295847 0.09265292 -0.0153039135 -0.048462864
-0.02448128 0.021495923 0.22246535 0.03769089 -0.090833716 -0.08636101 0.13862641 -0.14397916
-0.029934684 0.052637123 0.07742388 -0.050550997 -0.030900257 -0.19529544 -0.09979247 0.099638
-0.2542943 0.07279052 0.016663713 -0.120990776 -0.094867855 0.13312127 0.117278926 0.10822263
-0.07709055 0.091436036 0.074353814 -0.07345857 0.03947897 -0.07554979 -0.22793767 -0.18575995
0.08477173 -0.06695639 -0.10877222 -0.10641245 -0.051792897 0.04243963 0.014753964 -0.18456504
0.017845357 0.27623996 0.020853525 -0.0018989481 0.11314472 -0.060111515 0.012300574 0.120001845
00000000: 5d28 4fb9 51e6 c03d f2a8 d5bc cb05 94bd
00000010: cb86 5dbd 2a4e 903d 71c0 9f3c 6a3c a8bc
00000020: 39d4 ba3d 61fb 123d 168b babd 858a 68bd
00000030: 693e 2dbd d0c0 bd3d 44bd 7abc ff80 46bd
00000040: f78c c8bc 3818 b03c f5cd 633e c361 1a3d
00000050: 0707 babd 0bde b0bd 15f4 0d3e 466f 13be
00000060: 9539 f5bc 069a 573d 6990 9e3d 900e 4fbd
00000070: 8922 fdbc 87fb 47be ff5f ccbd 020f cc3d
00000080: dd32 82be 3213 953d 5782 883c 03ca f7bd
00000090: 144a c2bd f150 083e ef2f f03d d4a3 dd3d
000000a0: a6e1 9dbd d142 bb3d d046 983d 7271 96bd
000000b0: b3b4 213d d9b9 9abd 7e68 69be db37 3ebe
000000c0: cd9c ad3d 6f20 89bd f8c3 debd c5ee d9bd
000000d0: ca24 54bd 2dd5 2d3d 9cba 713c 9efe 3cbe
000000e0: 6d30 923c 536f 8d3e 03d5 aa3c 20e6 f8ba
000000f0: 6bb8 e73d 7e37 76bd 5988 493c 87c3 f53d
